Saved models/1DayDiff.pth (torch, 5468 bytes, 7 tensors)

lstm.weight_ih_l0 f4 [12, 6]
000000 f9 81 d0 be 7a f3 c5 bd 6a 6d d2 3d 02 5c 0c be
       -0.4072416 -0.0966558 0.10274775 -0.13706973
000010 10 e3 4f be b0 9f b6 be 59 aa 93 be d0 dc 2a bf
       -0.20301461 -0.35668707 -0.28840902 -0.66743183
000020 9b eb 8b bd 9e 3c 17 3d 0e f7 0e bf df 02 01 41
       -0.068320476 0.036923043 -0.55845726 8.063201
000030 0b 47 4c be b0 d2 14 be 8f 40 97 bd 79 5a 5f bd
       -0.19948976 -0.14533496 -0.073853604 -0.05452964
000040 f1 2d c4 3d e4 a6 5a 40 c8 9d 69 3e 4e 22 08 bd
       0.09579075 3.4164362 0.22814095 -0.03323584
000050 a1 e5 86 bb cc 26 c4 3e 81 ed 95 3e 06 6a 3d 3e
       -0.0041167294 0.3831085 0.29282764 0.18497476
000060 ec f0 b8 be 76 0e 57 3d 47 71 58 be 25 ab aa be
       -0.3612131 0.052504025 -0.21136962 -0.33333698
000070 37 79 52 3e 4a 2e f4 be c2 ca 64 be e0 85 f4 be
       0.20554052 -0.47691566 -0.22342971 -0.4775839
000080 d7 58 65 bd 3a e3 83 3e f3 61 c6 3e 59 b4 7a 3d
       -0.055992927 0.25759298 0.38746604 0.06120715
000090 45 16 07 bf a0 47 e2 be 35 fe 0c be 0c 39 14 3e
       -0.52768356 -0.4419527 -0.13768847 0.14474887
0000a0 a4 cb 0f 3f 0e 40 94 3e a6 90 53 bf 46 49 a8 bd
       0.56170106 0.2895512 -0.8264259 -0.08217101
0000b0 6e 16 2a bc e5 22 86 3f 77 4c 9a 3d bf 6e fb bd
       -0.010381324 1.0479399 0.07534116 -0.122769825
0000c0 b0 c6 48 3f 4d 1e 21 3f 7f 5c 26 3e 15 5b 2a bd
       0.78428173 0.6293686 0.16246222 -0.04159077
0000d0 b1 1f 20 3f 44 22 9c bf 9c 30 36 be ff 49 3a be
       0.6254836 -1.2197957 -0.1779198 -0.1819229
0000e0 f7 2b 2c 3e 9a 05 a6 be c1 43 ab be 6a 19 8f bd
       0.16813646 -0.3242615 -0.3345013 -0.06987269
0000f0 37 74 a3 3e 97 58 86 be dd 24 20 be d8 df b7 be
       0.31924602 -0.26239464 -0.15639062 -0.35912967
000100 81 b2 10 bf 9e 17 3e 41 58 2b 0d bf f0 ea 1f 3f
       -0.56522375 11.880766 -0.5514426 0.6246786
000110 4d 1a 05 be e5 41 60 be 83 19 dc 3e e9 a5 1c 40
       -0.12998314 -0.21900137 0.42988214 2.4476264

lstm.weight_hh_l0 f4 [12, 3]
000000 6b 4e d2 3d 41 64 27 3e e3 cc 48 be 1f 54 3d 3d
       0.10268863 0.16346838 -0.19609408 0.046222802
000010 9e 7d ee be 89 6c ff be 9b f5 a0 be 28 04 07 3d
       -0.46580213 -0.49887493 -0.31437382 0.032962948
000020 95 23 bf be d7 e1 d3 be ac 2c cc 3a b9 33 ec 3e
       -0.37331834 -0.4138324 0.0015577278 0.4613321
000030 27 22 79 be 0f a0 93 3e 3b ab 98 be 84 97 86 3e
       -0.24329434 0.28833053 -0.29818138 0.26287472
000040 c7 49 03 bf 6a 8f 44 3e 60 91 e6 be d0 17 d1 be
       -0.5128445 0.19195333 -0.45032787 -0.4083848
000050 57 84 7b be c2 9b 7d be 75 a4 02 3e 18 5d cf be
       -0.24562202 -0.24766448 0.12758048 -0.40500712
000060 ea 40 04 3f 32 e0 67 be 72 af 9a 3d b7 54 d6 be
       0.5166155 -0.22644117 0.07552995 -0.41861507
000070 a8 5d 04 3f d0 35 a6 bd 7e 46 c2 3e 21 8e 99 be
       0.5170541 -0.08115733 0.37944406 -0.29991248
000080 9a 52 6b bd 43 d5 9d be 35 1e 03 3f fa 71 37 be
       -0.057451822 -0.30826768 0.5121797 -0.17914572

lstm.bias_ih_l0 f4 [12]
000000 54 58 82 3e bb cb 0b 3f a6 a8 47 be 97 3c 9b 3e
       0.25458014 0.54607743 -0.19497928 0.30319664
000010 db f7 71 be 43 95 16 3e 5c 95 9f be 91 82 60 be
       -0.23629706 0.14705376 -0.3116864 -0.21924807
000020 4f 88 bc bd 5d 0b f8 3e 1c c0 85 3f ad 2a 04 3f
       -0.09205686 0.4844617 1.0449252 0.5162762

lstm.bias_hh_l0 f4 [12]
000000 d6 82 44 3b b3 a5 a3 3f ae d8 2a 3e 3f 2f a7 3e
       0.002998521 1.2784942 0.16684219 0.32653233
000010 f7 23 3a bd d2 83 9d 3e e9 c6 2c be 4f 25 7b 3e
       -0.045444455 0.30764633 -0.16872753 0.24525951
000020 f5 45 c2 3d c0 ff b2 bd b1 e3 74 3f c0 52 14 3f
       0.094859995 -0.08740187 0.9565993 0.57938766

fc_1.weight f4 [128, 3]
000000 1b 07 e0 be 23 11 98 3e 6b 57 60 be 54 bd b6 3e
       -0.4375542 0.29700574 -0.21908347 0.3569132
000010 60 0d d1 be dd c1 63 be bc 05 12 3e a3 ce 18 bf
       -0.40830517 -0.22241922 0.1426 -0.596903
000020 89 d0 0e 3d 72 04 e0 3e c6 d6 00 be 8a a4 42 be
       0.034866843 0.43753392 -0.1258193 -0.19008079
000030 d1 58 cf 3e 36 cc 70 3e 42 5d e2 3d 63 c3 0e 3f
       0.4049745 0.235154 0.11052944 0.55766886
000040 72 7e 98 3f 40 3e 66 be 1e aa ba be c5 25 93 bd
       1.1913588 -0.22484684 -0.36457914 -0.07184938
000050 68 57 23 3f d0 7b 0c 3f f0 ef aa 3f 38 f7 9b bc
       0.63805246 0.5487642 1.3354473 -0.019038782
000060 0e d8 fc be 48 48 35 3d dc da b9 be 4f 37 e6 3e
       -0.49383587 0.044258386 -0.3629979 0.44964072
000070 80 27 37 3f 30 96 94 be 96 94 12 3f e9 86 25 bf
       0.7154465 -0.29020834 0.57257974 -0.6465898
000080 e3 e9 fe 3e 42 46 da be 56 88 14 3e d0 4b 07 3e
       0.49787816 -0.42631727 0.14505133 0.13212514
000090 74 01 0e 3f 42 b8 01 3f 1d b2 58 3e 46 49 1f be
       0.5547097 0.5067178 0.21161695 -0.15555295
0000a0 36 f6 89 3d 41 75 06 3f 2a 42 02 be 8b 32 87 be
       0.06736414 0.52522665 -0.12720552 -0.2640575
0000b0 88 42 08 3f 0f 09 4d be 67 c8 ae bd f2 44 95 3e
       0.5322652 -0.20022987 -0.085343175 0.29154164
0000c0 17 30 c7 be 84 52 06 3f df 6f a4 bd a6 99 01 bf
       -0.38903877 0.5246966 -0.0802915 -0.50625074
0000d0 73 86 0a bf fc 42 f3 3d b7 cc a4 3d 61 35 6c 3e
       -0.54111403 0.11878011 0.08046859 0.23067237
0000e0 8d 2c 00 bf f0 b2 42 bd 79 0d 02 3f 0a c4 a9 be
       -0.5006798 -0.04753393 0.5080181 -0.33157378
0000f0 62 ce 11 bf 6a db 00 be 9f 55 42 bd fe 64 98 3e
       -0.5695554 -0.125837 -0.047444936 0.2976455
000100 cd 86 35 bc 86 3b 03 bf 2d b8 f3 3e 12 d7 a8 3f
       -0.011079502 -0.512627 0.47601452 1.3190634
000110 09 d4 1d 3f 6d 88 59 be f2 be 09 3e b4 d5 6c 3c
       0.61651665 -0.21243449 0.13451746 0.014455248
000120 ca a4 02 3f ee e1 1c 3d d5 73 3b bf 88 14 18 be
       0.510327 0.0383014 -0.7322362 -0.14851582
000130 af d7 cd bd b9 c2 b8 3e 36 9b 07 bf ff fb 0b bf
       -0.10050904 0.36086062 -0.5297121 -0.5468139
000140 29 58 1e 3f dd 6a fd bd a0 f5 a1 3e fc ed 3d be
       0.6185327 -0.12373898 0.3163271 -0.18547815
000150 75 85 95 bd cf 93 26 bf 3b b4 02 bf 71 e8 6a 3d
       -0.073008455 -0.6506929 -0.5105626 0.05735058
000160 2b 70 29 3e c4 54 19 bf 67 2e 13 bf 7d 6e e4 be
       0.16546695 -0.5989497 -0.5749268 -0.44615546
000170 5c 35 9b be 00 51 6d 3e ba 97 1c 3f 3c 01 cb bd
       -0.30314147 0.2317543 0.61169016 -0.09912345
000180 ef 0a 2f be c8 c2 02 bf 9c d7 87 be 2b 65 ec 3e
       -0.17094015 -0.5107846 -0.26531684 0.46170935
000190 0c 4b a8 3f 2e 7a e0 3c 56 17 11 bf 43 48 46 bf
       1.3147902 0.02740201 -0.5667623 -0.7745401
0001a0 4b b8 06 3f 56 40 02 bf e7 af 72 3e 40 43 30 bf
       0.5262496 -0.5087942 0.23699914 -0.68852615
0001b0 9d 0f a2 3e 20 74 51 be 4a 5f ee be 80 12 bc 3d
       0.31652537 -0.20454454 -0.46557075 0.09183216
0001c0 d9 4e 0d 3f 67 68 bc 3d 4b 44 6a be 13 06 70 3f
       0.55198437 0.09199601 -0.22877614 0.9375927
0001d0 6c 9c e3 be 95 54 fd 3e 4e e8 a7 bd 22 17 81 3d
       -0.44455278 0.49478593 -0.081986055 0.0630324
0001e0 e4 c1 89 bd ab 62 0a 3f 98 d6 0d bf 71 8b aa bd
       -0.06726435 0.54056805 -0.5540557 -0.083273776
0001f0 ca d1 bd 3c 6f 97 0d 3f 44 49 c5 3e 08 bb 5c 3f
       0.023171324 0.55309194 0.3853246 0.8622289
000200 8c 54 35 bf 74 26 1f 3a e8 7e 5f be e9 4c 10 3f
       -0.70832133 0.00060710986 -0.21825755 0.56367356
000210 20 22 89 be 30 71 06 3f 12 82 e8 3d 08 03 97 be
       -0.26783848 0.5251646 0.11352934 -0.294945
000220 89 26 ac 3e ea 12 6a be 4d 1b cf be 61 85 8f 3d
       0.3362315 -0.22858778 -0.40450516 0.07007862
000230 53 ee c6 be e2 71 16 3e 56 07 0b 3e 1a 83 52 be
       -0.38853702 0.1469188 0.13577017 -0.20557824
000240 ce a9 8e bd 02 77 52 bf fa fe 81 3f 27 14 16 be
       -0.069659814 -0.8221284 1.0155938 -0.14656125
000250 88 0a 5b bf 92 6e 1c 3f 3a 83 ae 3e d3 e1 01 3e
       -0.85562944 0.61106217 0.34084493 0.12683801
000260 2d 74 0c bd 8b 68 9f 3e c7 ee ae 3f 80 aa 0f 3d
       -0.03429048 0.31134447 1.3666619 0.03507471
000270 34 1d 8e be 22 41 14 3f b4 d9 03 be 92 20 b9 be
       -0.27756655 0.57911885 -0.12876016 -0.36157662
000280 fd 96 fc 3e ad 5a de be 15 62 d2 bd 1c e9 0b 3f
       0.49333945 -0.43428555 -0.10272614 0.5465257
000290 f6 64 0b 3f 47 22 e0 3e 33 a6 86 3e e0 a9 8c 3d
       0.5445093 0.43776152 0.26298675 0.068683386
0002a0 a5 a4 a7 3d da a0 d3 3e 02 2a d2 bd f8 16 ca 3e
       0.081857 0.41333658 -0.102619186 0.3947065
0002b0 9b bd 32 3d 34 92 21 be ae 62 54 3e 7c 1f 7c be
       0.043637853 -0.15778428 0.20740768 -0.24621385
0002c0 66 38 df be 39 66 ac be 53 2a ab be 6a b6 c9 be
       -0.43597716 -0.3367174 -0.33430728 -0.39396983
0002d0 43 c8 cc 3e 44 44 2b be f9 e5 b2 3e 11 22 8e be
       0.39996538 -0.1672526 0.3494108 -0.27760366
0002e0 93 74 1c bf 6e 6e 5f 3f 62 57 13 3f 9e 36 51 3e
       -0.6111538 0.8727788 0.5755521 0.20430991
0002f0 ca f0 26 bf fd ed 5d 3e c4 8d 5e 3f 85 87 ea be
       -0.65211165 0.21672817 0.8693507 -0.45806518
000300 b3 a4 25 3e db dc 61 bf dc 29 41 3e f7 68 5f bd
       0.16176109 -0.88227624 0.18863624 -0.05454346
000310 14 63 30 be 7a 5c 81 3e 33 95 ba be 23 57 c5 be
       -0.17225295 0.25265867 -0.36441955 -0.38543043
000320 29 40 9e be d3 5c ae be 35 3f aa 3e cb d6 8d 3e
       -0.30908325 -0.34055194 0.33251348 0.27702937
000330 25 11 05 3e e0 a1 f8 3e f4 cd 96 be 82 be 06 3f
       0.12994821 0.48561 -0.29454005 0.5263444
000340 19 73 35 3f 1c 37 6b bc f4 37 df 3e 50 84 ee be
       0.7087875 -0.014356401 0.43597376 -0.4658532
000350 39 b0 b6 3e 61 f7 66 3d c4 13 cd bd f6 2f 34 be
       0.35681322 0.056388263 -0.100135356 -0.1759642
000360 1d 8c e2 be 2b 7c 02 be b5 fe 6c be f2 70 e5 3e
       -0.44247523 -0.12742679 -0.23144038 0.44812733
000370 b6 89 c3 3e 10 57 97 be 4a bc 34 be 37 d0 0c bf
       0.38191003 -0.2955861 -0.17649952 -0.5500521
000380 93 63 2f be 35 8f 23 3e 99 4b 63 bf 9a db 0d 3e
       -0.17127828 0.15972598 -0.8878723 0.13853303
000390 bc 2c 22 3e b2 eb 69 bc 55 31 96 be de 58 70 be
       0.15837377 -0.014277386 -0.29334512 -0.234714
0003a0 5f 28 6c be e3 6a 3a 3f ef 49 05 3f 25 d3 aa 3e
       -0.23062275 0.72819346 0.5206594 0.33364215
0003b0 31 f6 69 3e e6 ab a5 bd e8 78 95 be 02 25 7f be
       0.22847821 -0.08089428 -0.29193807 -0.24916461
0003c0 02 cd e7 3e b1 fa 77 3e e9 53 df 3e 69 61 05 3f
       0.45273596 0.24216725 0.43618706 0.5210176
0003d0 be ab b0 be b7 78 8f be 50 0d ae 3e a2 60 b1 3e
       -0.3450603 -0.28021786 0.33994532 0.34644037
0003e0 19 f4 58 be 45 4a ec 3e 32 88 7e bf 3a cc 79 ba
       -0.21186866 0.46150413 -0.9942657 -0.00095290283
0003f0 d3 a6 87 be e2 8f 2c 3f 2d 44 07 be 82 bb ac 3d
       -0.26494464 0.6740705 -0.13209601 0.08434202

fc_1.bias f4 [128]
000000 39 3e d5 3e 78 21 e6 bd 3e 20 8e 3d 64 ce 00 bf
       0.41649035 -0.112368524 0.069397435 -0.5031493
000010 6b a7 ce be 31 ca 4c 3c 22 e1 65 be ad f1 91 3c
       -0.40362105 0.012499378 -0.22449163 0.017815435
000020 66 6b 04 bf b2 22 ff 3e f0 2e e3 3e aa 25 6c 3e
       -0.51726377 0.49831158 0.44371748 0.23061243
000030 56 76 d5 3e 26 b6 b4 be 3c fb 02 bf 41 da 0f 3e
       0.41691846 -0.35295218 -0.51164603 0.14048101
000040 d6 c0 4d be 29 49 15 be 41 44 41 3e 24 ef bc be
       -0.20093092 -0.1457869 0.18873693 -0.369012
000050 f3 c3 0d bc e5 2a 39 3e f3 3e 7c be c2 91 4c bb
       -0.008652675 0.18082769 -0.24633388 -0.0031214808
000060 aa 5d 04 3f 8e 4b 9a 3d 02 94 3b 3c c8 6a 00 bf
       0.5170542 0.07533942 0.011448862 -0.50162935
000070 1a 2a 7f 3e e1 16 0e 3f f0 4b 1f 3e 7e 5b b5 3e
       0.24918404 0.5550366 0.15556312 0.35421365
000080 62 aa c2 bd 2e d6 81 3c 92 64 1d 3d 14 99 db 3e
       -0.09505154 0.0158492 0.03842599 0.42890227
000090 6c ee 8e 3e fc 75 e3 3d 66 38 7b 3e ba da 82 bd
       0.27916276 0.11106488 0.24533233 -0.06389375
0000a0 9c 61 33 be 92 92 86 be 33 05 c1 3e e0 62 b9 be
       -0.17517704 -0.262837 0.3769928 -0.36208248
0000b0 7c e7 aa be 69 5b ed be fa 34 9e bd 33 12 09 bf
       -0.33379734 -0.46358803 -0.07724948 -0.53543395
0000c0 b2 88 77 3d 3b a4 b1 3e fd 0d 8d 3e 81 3a 3d be
       0.060433097 0.3469561 0.27549735 -0.18479349
0000d0 99 a4 02 3f 6e f6 00 3f ca 14 df be 9f d1 04 bf
       0.51032406 0.5037602 -0.43570548 -0.51882356
0000e0 47 df a1 be 22 1a 89 be 47 9f f2 be 36 12 09 bf
       -0.3161566 -0.2677775 -0.47387144 -0.5354341
0000f0 c4 8c 90 3e c8 ac 50 3c d1 41 58 3e e8 56 0c 3f
       0.28232396 0.012736507 0.21118857 0.5482011
000100 a0 2d c6 3e 04 b8 4b bc 17 95 68 3e 59 a8 c5 be
       0.38706684 -0.012434009 0.22713123 -0.38605002
000110 48 89 b7 3d b1 e0 39 3e 1c 0c 36 be 2f 46 36 3e
       0.08961731 0.18152119 -0.17778057 0.1780021
000120 0c 2c a1 be 12 f0 90 3d a0 20 1e be 83 0c 98 3d
       -0.31478918 0.0707704 -0.15442133 0.074242614
000130 40 64 d5 3d 91 b9 73 be 10 27 16 be 71 b8 88 be
       0.10419512 -0.23801257 -0.14663339 -0.26703218
000140 87 e6 6d be 10 5b dd be 41 3f b0 3e 84 31 09 3e
       -0.2323247 -0.43233538 0.3442326 0.13397795
000150 fa 86 f7 3b b5 97 70 be 81 89 4f bd c5 61 47 3e
       0.0075539323 -0.23495372 -0.050668243 0.1947089
000160 b8 53 a8 3d 10 23 b8 be 97 5e df 3d e4 f2 58 3e
       0.08219093 -0.3596425 0.109067135 0.21186405
000170 7e cb 8f bb 83 73 ba be c3 17 20 3e ea 85 e1 3e
       -0.004388272 -0.36416253 0.15634064 0.4404748
000180 7e e7 13 3e 80 d6 84 be 05 69 9d 3e 06 35 b8 be
       0.14443776 -0.259449 0.30744186 -0.35977954
000190 26 cf ae be f0 bc 11 bf b7 64 a9 3e 47 d0 b1 be
       -0.34142417 -0.5692892 0.33084652 -0.34729216
0001a0 09 0b 0b 3f 61 1a cc 3d 35 7d 32 bd f2 82 83 be
       0.54313713 0.09965969 -0.043576438 -0.2568584
0001b0 f0 e2 05 be 5f 4f a6 3e df 5d 01 3e c0 69 6a be
       -0.13074851 0.3248243 0.12633465 -0.22891903
0001c0 6c 65 04 bf 19 fe 9c 3e b3 61 be be 02 8c 34 3e
       -0.5171726 0.3066261 -0.37183914 0.17631534
0001d0 1f 42 0a bf d6 f8 12 bd ae 4e 0d 3f a0 f9 0e be
       -0.5400714 -0.03588184 0.5519818 -0.13962412
0001e0 65 b4 47 3e 5c 07 74 3d f9 0f 00 3f 8a 44 06 3e
       0.19502409 0.05957733 0.5002437 0.13112083
0001f0 f3 fe a8 bd 57 04 e7 be ce a9 2a bd 5b cc 52 3e
       -0.08251753 -0.451205 -0.041665845 0.20585768

fc.weight f4 [1, 128]
000000 bf 8a 89 3d 4f 88 19 bc d1 54 a6 3d 6a 94 ff 3b
       0.06715917 -0.009370877 0.08121646 0.0077996748
000010 43 3d 9e 3d c4 d7 0c bd 6b 89 88 40 f9 35 a2 3f
       0.077265285 -0.034385458 4.2667747 1.2672721
000020 28 6b 3e 3d b4 a7 12 3d df 16 43 bd d0 7f 8b 3c
       0.04648891 0.035804465 -0.047629233 0.01702872
000030 c8 a8 b6 3d 17 2f 2c bd 82 f3 5f 3d 5d ff 98 3c
       0.08918911 -0.042037096 0.054675587 0.018676454
000040 da e4 aa bc e5 0d 77 3d 08 ec 05 3e f8 4f a7 bd
       -0.020861078 0.060315985 0.1307832 -0.0816955
000050 cf 70 87 3d 55 30 41 3e ee 36 c3 bf b2 95 53 bc
       0.066133134 0.18866093 -1.5251138 -0.012914108
000060 c9 1b 18 3e 5b 70 3b bd e4 84 22 be 04 b9 2b 3d
       0.14854349 -0.045761447 -0.15871006 0.04192449
000070 26 24 4c 3e 73 e0 94 3d 28 49 b0 3c 83 0a 86 3d
       0.19935665 0.07269373 0.021519259 0.06544974
000080 58 76 96 3d 43 5a 06 3f 36 a9 06 bd 65 ac 06 3e
       0.07346791 0.5248148 -0.032876216 0.13151701
000090 37 38 91 3d 25 6d e5 3c 6f 2e f1 3d 07 a2 b7 3c
       0.070908 0.028006146 0.11776435 0.022416128
0000a0 0d 32 bd bc 86 8a 47 bd 44 21 8e 3d 88 dc a8 3d
       -0.023095155 -0.04871609 0.06939939 0.08245188
0000b0 b5 21 d1 bc 79 5b 2e bd 8e 20 aa 3d 4e e9 2c bd
       -0.025528768 -0.042567704 0.083069906 -0.042214684
0000c0 a9 bd 25 bf 0a 45 5e bd 32 a4 50 3d f6 9f d2 40
       -0.64742523 -0.05426506 0.05093784 6.5820265
0000d0 87 df e7 3d 68 fa 99 3d 08 45 9c 3c ce 70 24 3d
       0.11321931 0.07518464 0.019075885 0.04014664
0000e0 56 68 a0 3d 8f 02 18 3c 85 1a 41 bd 5d 91 33 bb
       0.078324005 0.009277954 -0.04714443 -0.0027399876
0000f0 d6 2c 12 3d 0a 28 ac be 1d 45 36 3e 2c c8 47 3d
       0.03568729 -0.33624297 0.17799802 0.048774883
000100 8a ba 3e bc 46 5f 7d 3e 0b a6 57 3d 01 ed 37 3c
       -0.011641154 0.24743375 0.052648585 0.01122594
000110 fc 76 c9 3d 98 73 0c 3c 8f 08 51 bd df 98 ae 3d
       0.098371476 0.008572482 -0.051033553 0.085252516
000120 37 70 82 bd 79 b2 07 3e eb 7f b2 bd 01 34 fc 3b
       -0.063690595 0.13251676 -0.08715805 0.007696629
000130 20 b9 63 3e 08 88 7d 40 4e 34 7a 3d 27 81 f9 3c
       0.22238588 3.9614277 0.061085038 0.030457092
000140 de 61 9a 3d f4 39 b1 bd 23 c6 a4 3d 08 8c be 3d
       0.07538198 -0.08653632 0.08045604 0.093040526
000150 ac 51 22 bc a6 96 54 bb 10 5e 8a 3d c0 dc 1b 3e
       -0.009907167 -0.0032438426 0.06756222 0.15220928
000160 73 82 26 bf 12 24 09 3c 15 dd 00 3e 1b 9e 63 3d
       -0.650428 0.008370416 0.12584336 0.055570703
000170 e2 42 d5 bc 8a 46 62 bc b3 b7 b9 3d 7c b2 96 3d
       -0.026032869 -0.013810763 0.09068241 0.07358262
000180 29 3e d6 bf 80 c7 2b bc 17 d4 8a 3d 9d 5b b0 3d
       -1.673772 -0.010484576 0.06778734 0.08611224
000190 4d 7a c3 3c 4f 19 a7 3b 0b 53 f5 bf 94 0b 42 3d
       0.023862028 0.0050994526 -1.9165968 0.047374323
0001a0 63 78 d5 3d f5 7a f4 3d 07 97 14 bf 57 57 ab 3d
       0.104233526 0.11937515 -0.5804295 0.08366268
0001b0 24 6b 45 3d 26 15 f7 3d 49 f5 e2 3d 4d c0 93 40
       0.04819788 0.120645806 0.11081941 4.617224
0001c0 d7 6b 8f bd 8a c5 ef 3d e0 3c 09 3d b1 c6 28 3e
       -0.07002991 0.117075995 0.03350532 0.16482045
0001d0 1f fd 6a bd f7 5a 8e bf 1a 79 c3 3d 56 f4 ad 3d
       -0.0573703 -1.112151 0.09544583 0.08493869
0001e0 28 66 f1 3d 74 bb 34 bf 1c 1b 9e 3d 96 1c 14 3d
       0.11787063 -0.7059853 0.077200145 0.036160074
0001f0 58 0e 9e 3d d3 1d 84 bd 86 19 49 40 f0 72 b2 3d
       0.077175796 -0.06451001 3.1421828 0.08713329
