Saved models/1DayDiff.pth (torch, 5879 bytes, 7 tensors)

lstm.weight_ih_l0 f4 [12, 6]
000000 eb f9 ef 3e 44 c0 b0 be ef 04 8a 3e 10 8e e3 3d
       0.4687036 -0.34521687 0.2695689 0.11111081
000010 41 76 c3 3e ab 49 81 3e fc ad 86 3f ef 53 1c 3f
       0.38176158 0.25251517 1.0521846 0.6106557
000020 29 15 4f 3f bd fc 52 bf 59 dd cd 3e 92 6f 60 3e
       0.8089166 -0.824169 0.40207937 0.2191756
000030 1a a9 9c 3e c7 34 9f 3d 53 00 4b bf 93 3a 2a 3f
       0.30597764 0.07773738 -0.7929737 0.6649563
000040 2d 35 9e bd 9b 7a ac 3e 4d f3 4f 3e e8 af db be
       -0.07724986 0.3368729 0.20307656 -0.42907643
000050 a3 32 f1 3e 6d 35 10 3f 43 38 ba 3e 2e 79 0a 3f
       0.47108945 0.5633152 0.3637105 0.54091156
000060 82 6d e7 3e 5d 5b 14 3e cd 59 4f 3e 41 06 dc 3d
       0.45200735 0.14487977 0.202491 0.1074338
000070 58 9f c4 3e 39 60 cd 3e e9 23 6e 3e 5c c1 65 be
       0.3840282 0.40112475 0.23255886 -0.22437042
000080 2c c5 09 bd 69 94 ab 3e 7c f3 e8 be 6d 80 02 bf
       -0.033635303 0.33511665 -0.45498264 -0.5097721
000090 11 90 02 3f e2 25 e7 be 52 ea 6e 3e 3f 17 ec be
       0.5100108 -0.4514609 0.23331574 -0.46111485
0000a0 0e f4 e0 3d 33 74 0b be bd 7c 7f 3f 3c e2 15 3e
       0.1098405 -0.13618545 0.9979971 0.14637083
0000b0 6c 75 90 bd b2 62 3a bf 9b 6b ed bd 56 47 c4 bd
       -0.070536464 -0.7280685 -0.1159279 -0.09583919
0000c0 b0 33 aa 3e d0 c3 56 3e 1a e4 40 be bd 8a 9c 3f
       0.3324256 0.20973134 -0.18837014 1.222984
0000d0 4b 8f 66 bd d9 38 5a bd 85 f2 10 3d af ba 1b be
       -0.056289 -0.05327687 0.035387535 -0.15207933
0000e0 ed 11 57 bd e6 d3 42 be a7 ec b3 3e 61 81 c9 be
       -0.05250733 -0.19026145 0.3514149 -0.3935652
0000f0 d4 43 31 3f 7c e4 4e bf 4b 67 8c 3e c1 86 a0 bf
       0.6924412 -0.8081739 0.27422556 -1.2541124
000100 5e b6 9d be 33 22 c8 3f 7e bf cc 3d d1 cb 86 be
       -0.30803198 1.5635437 0.09997462 -0.26327375
000110 66 1a b4 be 73 5c 30 3f 58 76 62 be 0a 4b d3 be
       -0.3517639 0.68891066 -0.22115457 -0.41268188

lstm.weight_hh_l0 f4 [12, 3]
000000 91 05 01 3f e7 27 3f be 98 53 11 3f 44 a8 35 3d
       0.5039912 -0.18667565 0.5676818 0.044349924
000010 ac 13 11 3f e5 42 9c 3e df ba 11 3f c6 23 f8 3e
       0.5667064 0.30519786 0.5692577 0.48464793
000020 77 70 6e 3e 22 3f d9 be 87 f3 82 be a6 57 ee be
       0.2328509 -0.4243098 -0.25576422 -0.46551245
000030 7a 0a 0e be ab 76 84 bd 2c ca be be e1 64 03 bf
       -0.13871184 -0.064679466 -0.3726362 -0.51325804
000040 42 98 2e 3e 50 db 9a 3e 98 ea af be bf c4 07 bf
       0.17050269 0.30245447 -0.34358668 -0.53034586
000050 8b 24 a2 3e 01 ca 37 3d 3a 9c 60 3e 6b 03 70 3d
       0.31668505 0.04487038 0.21934596 0.05859701
000060 09 ce 76 3d d7 14 b0 3d 88 bd 8b be 46 ff da bd
       0.060255084 0.08597725 -0.27293038 -0.10693221
000070 11 cc 00 bf f3 d6 a7 be bb 5c 00 3f 29 54 5a be
       -0.5031138 -0.3278118 0.50141495 -0.21321167
000080 9b eb 59 be b7 66 65 be 07 4c 01 3f 86 b1 a1 3e
       -0.21281283 -0.22402464 0.50506634 0.31580752

lstm.bias_ih_l0 f4 [12]
000000 16 bd 90 3e ad 24 a1 3f f7 70 c3 3e 3f ef 05 3e
       0.2826926 1.2589318 0.38172123 0.13079546
000010 d8 b6 c2 3e 05 cb 59 3e b1 99 0b be 0e 19 d8 3e
       0.38030124 0.21268852 -0.13632847 0.42206615
000020 e0 26 dd bd d2 cb 2f be bd 36 e1 3e 9e 1c ae be
       -0.107984304 -0.17167595 0.43987074 -0.34006208

lstm.bias_hh_l0 f4 [12]
000000 fa ab 13 3e cf f0 ae 3f e1 53 80 3e 95 15 84 be
       0.14421073 1.3667239 0.25063995 -0.25797716
000010 93 70 bf 3e d9 37 56 be 2e cc 04 bf d0 78 a3 be
       0.37390575 -0.20919742 -0.51874053 -0.3192811
000020 ba b8 0e 3f 2f 97 08 3f 22 c3 84 3f 8c bb 11 3e
       0.5575062 0.5335569 1.037205 0.142317

fc_1.weight f4 [128, 3]
000000 80 5e 9d 3e 4c 15 2a be b2 1a 80 3e e0 94 22 be
       0.3073616 -0.16609687 0.25020367 -0.15877104
000010 06 10 55 3e 43 1a 2f bf 6b 73 e4 3c 5f 33 6d be
       0.20806894 -0.6839945 0.027887067 -0.23164128
000020 7d 8b 84 be b5 ab c7 3b 83 0e 3e bf aa 0d 03 3e
       -0.2588767 0.006093467 -0.74240893 0.12798181
000030 1a ba ba 3e a5 00 d6 be 63 74 e9 bd 0f 8c a3 be
       0.3647011 -0.41797367 -0.11399152 -0.31942794
000040 9f 72 7b 3e c2 ca d7 be 8e de 93 be fd 32 f8 bd
       0.24555443 -0.4214688 -0.28880733 -0.121191
000050 6a ba b4 be cc c3 05 be 55 79 2d be dc 62 1e 3e
       -0.35298473 -0.13062972 -0.16940816 0.154674
000060 8c c5 00 3f 50 c3 97 be 50 4b f2 be ef d3 f4 3e
       0.5030143 -0.296412 -0.47323084 0.47817943
000070 57 2e 89 3c b7 4f 39 3c 0b 7f 10 3f 73 be b3 3e
       0.01674573 0.011310509 0.5644385 0.3510624
000080 4d 7b 04 3f 47 80 10 bf 07 ec 02 bf 58 16 f1 be
       0.5175064 -0.56445736 -0.511414 -0.4708736
000090 22 06 04 bf b8 81 9b be 3a 47 62 3e d6 05 cb 3e
       -0.5157186 -0.30372405 0.22097483 0.3965289
0000a0 2c 04 07 be 7b d5 a0 bd cf f2 c4 3d c4 44 ad be
       -0.13185185 -0.07853218 0.096166246 -0.33841527
0000b0 6c 6a 7d 3e 54 f5 3c 3e 79 3c b7 bd 7b 33 01 3f
       0.24747628 0.1845296 -0.08947081 0.5046918
0000c0 74 4e 07 3e 10 e9 7c be dc 7b a1 3e 14 7f 87 3e
       0.13213521 -0.24698281 0.3153981 0.2646414
0000d0 77 05 7b 3d dd e3 89 be ef f0 c7 be e3 19 77 3e
       0.06128451 -0.26931658 -0.39051005 0.24130969
0000e0 25 d8 fa 3d 73 12 da 3d 14 79 02 3e b5 a0 a2 3d
       0.122482575 0.1064805 0.127415 0.07940809
0000f0 64 f6 ed bc e9 a7 8e be d4 9b 12 3e dc 7a 74 3e
       -0.029048152 -0.2786248 0.14317256 0.23874992
000100 e1 3a 40 bf 2b c1 48 be ae 8f 8b 3e 26 47 6f be
       -0.7508984 -0.19604938 0.27258056 -0.23366985
000110 c2 d5 9a be f9 01 d1 be 73 2f e1 3e 3d 04 3b 3e
       -0.3024121 -0.40821818 0.43981513 0.18263336
000120 7f b6 fe be b0 0d a8 3d 00 e8 f9 be 23 77 e7 3e
       -0.49748608 0.08205736 -0.48809814 0.45208082
000130 9a 05 bf 3d e9 ad e3 be f8 4d d5 be b9 39 2e bd
       0.0932724 -0.4446862 -0.41661048 -0.042535517
000140 cd 13 55 3e 71 9b c9 be e9 c0 12 be 44 3e 06 3f
       0.20808335 -0.39376405 -0.14331402 0.5243876
000150 16 c8 2f 3e e8 80 cd 3b 3a 8f 5d be a9 17 9f be
       0.1716617 0.0062714703 -0.21636668 -0.3107274
000160 5b 9f e4 3f b5 e3 14 bf d0 27 28 bc 95 1f d7 3e
       1.7861131 -0.58159953 -0.010263398 0.42016283
000170 20 72 55 be 43 f3 d5 3e d4 53 05 be dc f8 84 bd
       -0.20844316 0.41787156 -0.13020259 -0.06492779
000180 20 75 0a 3f b3 97 ab bd b4 b5 09 bf 43 3e e1 be
       0.5408497 -0.08378544 -0.5379288 -0.43992814
000190 14 e3 7b 3e 7e 7d d3 bd 5d e3 db be 5a 6b 33 bf
       0.24598342 -0.1032667 -0.42946902 -0.7008568
0001a0 1f 9a b3 be 59 52 9a bc e4 76 db 3d f6 68 da be
       -0.35078523 -0.018838095 0.10716036 -0.42658204
0001b0 02 a2 ed 3e 61 9b 48 3f b0 4d 28 bf b7 24 c9 3d
       0.46412665 0.7836209 -0.6574354 0.09821456
0001c0 1c 8d 9b 3c 5a 50 07 bf 79 b8 f2 be e3 5d 3a bf
       0.018988185 -0.5285698 -0.47406366 -0.7279951
0001d0 a4 cf 24 bf cc 52 01 be c5 16 4a be 9b 41 05 be
       -0.64379334 -0.12629241 -0.19735248 -0.13013308
0001e0 19 4a 2f be f4 24 70 3e ad 33 97 3e d6 0d a1 be
       -0.1711811 0.23451596 0.29531613 -0.31455868
0001f0 20 bf f3 be c5 5e c6 3d 20 de e0 be 59 88 e6 bd
       -0.47606754 0.096860446 -0.43919468 -0.11256475
000200 59 0d ab 3e 58 b9 0e bf bf 9f 7d be 53 de a2 bd
       0.3340862 -0.5575156 -0.2476797 -0.07952561
000210 a6 8a 9a be b8 1c ab 3e ae 4c cd 3c 5f 72 e4 be
       -0.30183905 0.33420348 0.025060978 -0.44618508
000220 40 6e 1b be 31 b6 d8 3d fc 6d e2 be 04 d9 4c be
       -0.15178776 0.10581625 -0.44224536 -0.2000466
000230 f4 7e d3 3e 07 a5 de bd d8 55 ad bd d4 16 eb 3e
       0.41307795 -0.1087132 -0.08463639 0.45915854
000240 0f e7 82 3e 37 4c c5 be 97 f6 0a bd 30 9d ce 3e
       0.2556691 -0.3853471 -0.033926573 0.403543
000250 9d 0e a5 3f e3 e5 84 bf 23 34 74 3d 40 11 b8 bd
       1.2895085 -1.0382656 0.059620034 -0.08987665
000260 05 bf d0 3e c2 10 15 bd 26 19 bd be cf 88 73 bd
       0.40770736 -0.036392935 -0.3693325 -0.059456643
000270 28 25 07 3e 82 ee 06 bf 87 3e ad 3e 22 88 eb 3e
       0.13197768 -0.52707684 0.33836767 0.460023
000280 2c 99 03 bf 1a e0 15 3c 5b fa 0e bf 1f 65 00 3d
       -0.51405597 0.009147668 -0.5585076 0.031346437
000290 b8 c1 36 3e 5c dd a2 be 29 99 af 3e 31 85 8f be
       0.17847335 -0.3180951 0.3429654 -0.28031304
0002a0 b5 96 10 bf 82 35 16 3f f5 53 46 bf 6a bd 08 3f
       -0.5647996 0.58675396 -0.7747186 0.5341402
0002b0 4b 44 0e 3f 59 61 c0 bd dc 34 f5 3e 4e 8f f5 be
       0.55572957 -0.093935676 0.4789189 -0.47960895
0002c0 8e 4d da bd 3a 6d 63 3e ab 1f 83 3e df e8 00 bf
       -0.10659324 0.22209635 0.25610098 -0.50355333
0002d0 5d 33 e2 3d e2 8e df be 49 16 82 3e 46 96 8b 3e
       0.11044953 -0.43663698 0.25407627 0.27263087
0002e0 ba 48 62 bd 05 9e c8 be a7 ab 07 bf 55 8b 19 be
       -0.05524514 -0.3918306 -0.52996296 -0.14994557
0002f0 84 34 00 be 01 ed 4d 3e 6b e3 f6 be a7 49 50 be
       -0.12520033 0.20109941 -0.4822038 -0.20340596
000300 46 cd bc 3d 8c 62 9b 3f 2c eb 59 bd 5d 21 ea 3d
       0.0921884 1.2139449 -0.053202793 0.11432145
000310 06 58 93 bc c3 d5 11 bf 2a 90 b9 bd 75 a1 47 3e
       -0.017986309 -0.569668 -0.090607 0.19495185
000320 8f d0 56 be 3d 4e 01 3f 5e c6 59 3e ac 37 9c 3e
       -0.20977996 0.5051001 0.21267077 0.30511224
000330 b8 3d 91 3d 9e dc 44 bd d2 02 54 be 6f 08 88 3e
       0.0709185 -0.04806196 -0.20704201 0.26568934
000340 cd 0a 02 bf 6b 9c 58 3e 5f 98 ab 3e bb d5 83 bc
       -0.5079773 0.21153419 0.33514687 -0.016093126
000350 2c 36 8d 3e 5f 50 cf 3e ff 87 56 bd 07 8a f7 be
       0.27580392 0.40491006 -0.05237579 -0.48347494
000360 d2 19 33 3e 48 ba 91 be ce 83 13 3f f8 31 25 bd
       0.17490318 -0.28462434 0.57622993 -0.040330857
000370 65 d6 06 3f 69 a0 ce be ae 05 43 3e 88 69 a8 3e
       0.5267089 -0.40356758 0.19045135 0.32893014
000380 94 b0 1c bf d5 1b e7 be 55 6e f4 3e 53 c4 cb 3d
       -0.61206937 -0.45138422 0.47740427 0.09949555
000390 4d ba b9 be 59 78 39 be fa 1a cd 3d 25 82 1f be
       -0.3627495 -0.18112315 0.10014911 -0.1557699
0003a0 5c 01 0a 40 90 c3 89 bf 88 76 f2 3d ed be 88 3e
       2.156333 -1.0762806 0.11839014 0.26708165
0003b0 7c 15 0b bf 5c 97 04 3f 7a 37 2e 3f cb 6f ef be
       -0.5432966 0.51793456 0.680534 -0.4676498
0003c0 1e 74 46 be 5f a4 d7 3f 24 9b dc be f6 e4 51 be
       -0.19380233 1.6847037 -0.43087113 -0.20497498
0003d0 42 9d d7 3e 60 bf 6d 3e 3a 3e c7 bd f1 de a8 be
       0.42112166 0.23217535 -0.09728666 -0.3298259
0003e0 cb ca 94 3e f6 83 99 be 70 87 c5 3d b8 88 42 3e
       0.2906097 -0.2998349 0.09644973 0.18997467
0003f0 86 e4 11 bf db 9b 68 be 37 7f 3d 3d 0c bd fe be
       -0.56989324 -0.22715704 0.0462639 -0.49753606

fc_1.bias f4 [128]
000000 88 a9 92 bc a4 5a 14 3e 69 13 df bd fb 90 2a 3e
       -0.017903104 0.14487702 -0.10892374 0.16656868
000010 45 8e 00 3f 53 35 27 be 6d 32 97 3e f9 d1 07 bf
       0.50217086 -0.16328935 0.2953066 -0.5305477
000020 ee 18 27 3e 9f 38 1c be d1 3f b3 3d f3 b6 8d 3e
       0.16318104 -0.15255974 0.087524064 0.27678642
000030 c7 6b f0 3e 0e 9f 8e 3b c2 4d 7a bd b9 6b 5f 3d
       0.46957228 0.004352457 -0.061109312 0.05454609
000040 50 0c f9 3e fe f5 9c bc 44 7d c9 bd 81 dc cd 3e
       0.48642206 -0.019160267 -0.09838346 0.40207294
000050 e0 4b 10 bf 13 bc 39 3e 0f 14 df be bc b7 66 bd
       -0.56365776 0.18138151 -0.4356999 -0.056327567
000060 7f 2f ef be ce 31 97 be f0 af b4 3e 0c 74 49 3e
       -0.46715924 -0.29530185 0.3529048 0.19673175
000070 c4 95 4b 3d 90 99 ed bc da e7 01 bf 15 65 a5 be
       0.049703375 -0.029003888 -0.507444 -0.32303682
000080 cc 2b b2 3e 63 2b 87 3e 59 17 7e 3e ed 87 bf 3d
       0.3479904 0.2640029 0.24813594 0.09352098
000090 b4 32 c6 3c 70 17 0b 3f 23 97 90 3e df b7 cf be
       0.024194099 0.5433264 0.28240308 -0.4056997
0000a0 66 82 7c bd 1c ee 7f 3d 1a 78 08 bf eb 0b 25 be
       -0.061647795 0.06248294 -0.5330826 -0.16117828
0000b0 77 4d ea 3e d8 fb 00 3f 9d c3 a0 3e c7 f8 9d be
       0.45762226 0.50384283 0.3139924 -0.30853865
0000c0 fc d1 5a bb 33 bd 15 3d 44 b9 1b 3e 62 ff 2c be
       -0.003338932 0.036557388 0.15207392 -0.16894296
0000d0 f9 96 7d 3c 3f 39 95 bc db 47 8d 3e 6d 38 ef be
       0.015477889 -0.018215774 0.27593884 -0.46722737
0000e0 80 8b ba 3d fa a3 f2 be 18 82 be be ad bc bc 3d
       0.09108639 -0.4739073 -0.3720863 0.092156745
0000f0 07 ea a7 be 4b fc b3 be 8c eb 92 3c 7c d1 2a be
       -0.32795736 -0.35153422 0.017934583 -0.16681474
000100 b2 f4 21 be 6d 15 d6 be cd 23 e9 bd 23 8d f4 be
       -0.15816 -0.41813222 -0.113837816 -0.4776393
000110 22 a0 70 be 93 92 33 bd c7 63 8f be f5 6a ee 3e
       -0.23498586 -0.043840956 -0.28005812 0.46565977
000120 9c d2 f7 be 7e aa 2e 3e ed 1d 12 3f c8 04 cf 3e
       -0.4840287 0.17057225 0.57076913 0.40433335
000130 25 c0 c6 be a5 73 b4 bb b1 6b 6c 3e 26 6c b8 3c
       -0.3881847 -0.00550695 0.23087956 0.022512507
000140 77 a5 3f bd 26 81 05 3f 3d 87 9a be 68 7a a4 be
       -0.04678866 0.5215019 -0.30181304 -0.3212464
000150 cd 8f 82 3e 60 e3 04 3f 29 04 38 3e 92 93 13 3e
       0.25500336 0.51909447 0.17970337 0.14411762
000160 0d 08 9e bd 05 46 e0 be bf 09 8d 3e 64 e6 d6 be
       -0.07716379 -0.4380342 0.27546498 -0.4197265
000170 75 43 f9 be 52 09 d2 bd 51 f1 17 3e 02 a2 08 be
       -0.48684278 -0.10255684 0.14838149 -0.13343051
000180 ea 86 c0 be 8f 99 f3 be c7 04 d2 3e 4e 5d 89 3d
       -0.3760293 -0.47578093 0.4101927 0.067072496
000190 19 3a 81 be c0 0a bc 3e 38 f8 74 bd b4 a4 92 3e
       -0.25239637 0.36726952 -0.059807032 0.28641284
0001a0 c9 8a d5 3e 31 d4 6b bd 9e 45 99 be f5 9b 32 be
       0.41707447 -0.05757541 -0.29935926 -0.17442305
0001b0 14 b7 b4 3b 9d c6 c2 3e 4d ef 55 bd d5 81 9a 3e
       0.0055149887 0.38042155 -0.052230168 0.3017718
0001c0 a1 36 89 be ae 8c eb be 34 ba 10 3f 2a 7d e3 3d
       -0.2679949 -0.46005768 0.56534123 0.111078575
0001d0 cd 61 9a be 57 2e 6a 3d 84 9a 23 be c2 72 14 3e
       -0.3015274 0.0571731 -0.15976912 0.14496902
0001e0 e1 ce 89 be 96 00 bf be f3 01 86 3e 31 65 19 3d
       -0.2691565 -0.37305135 0.26173362 0.03745002
0001f0 01 de 8c 3e 25 54 ec 3c 6a 1a f2 be 48 74 32 be
       0.27513126 0.028848717 -0.47285777 -0.1742717

fc.weight f4 [1, 128]
000000 63 de 08 be fd ac f1 3d ca 89 81 bd 73 7c c1 3c
       -0.13366084 0.11800573 -0.06325109 0.023618912
000010 39 3b cb 3d 5b c5 68 3d 54 f5 c1 3c 71 3d 91 3d
       0.09923405 0.056828838 0.023676552 0.07091797
000020 98 94 f4 3e 5d 6b 47 bd 6a 3a 07 3d ce f1 6d 3d
       0.47769618 -0.048686374 0.033014692 0.05809193
000030 2d c9 97 3d 24 96 e9 bc 0a 3a 2d bd 2b a0 d5 3c
       0.07411418 -0.028513975 -0.04229168 0.02607735
000040 00 00 63 3d 4a d7 2f bd 11 d3 f1 3c ba a7 8e bc
       0.055419922 -0.042929925 0.02951959 -0.017413963
000050 9e ae aa bd 1d e5 a9 3d 54 c4 77 3d 23 13 b2 bd
       -0.08334087 0.08295653 0.060489967 -0.08695056
000060 7b 38 3b bd 00 0f 7b 3d fd b7 b8 bc 16 98 27 bd
       -0.04570816 0.061293602 -0.02254867 -0.040916525
000070 87 fd 06 3f 19 6d 04 c0 fe 90 67 bd af a5 93 3c
       0.527306 -2.0691588 -0.05653476 0.01802334
000080 43 f6 06 3e 49 aa 9f 3d 52 fa 63 3d ba 06 3c 3e
       0.13179879 0.07796151 0.055658646 0.18361941
000090 f3 4d a8 c0 35 3f b1 3d 36 d5 4b 3e c7 f5 19 3c
       -5.2595153 0.08654634 0.19905552 0.009396977
0000a0 77 fd 66 3d c6 1f 17 3a 8f fa b9 bb a5 ae b4 bd
       0.056394067 0.00057649275 -0.005675621 -0.08822373
0000b0 7f 7f f1 3c 4d 8b 0f 3d 28 32 8e 3c cc 64 74 bd
       0.02947974 0.035044957 0.0173579 -0.05966644
0000c0 8e 7a 8f 3d 33 97 38 c0 5b 24 42 3c 7e 33 fb 3c
       0.07005797 -2.8842285 0.011849488 0.030664202
0000d0 fd 74 1c bb ae 84 ac 3d 06 b7 7a 3d 3d e2 e6 bc
       -0.0023873441 0.08423744 0.0612097 -0.02818405
0000e0 ae d7 13 c0 7a 79 0d 3c 89 90 88 bd b6 27 9f 3e
       -2.310039 0.008634919 -0.06668193 0.31084985
0000f0 7d 2f 97 bd c0 7c ac 3d fa 0c 35 bd c9 88 9b 3c
       -0.073821045 0.08422232 -0.04420183 0.018986123
000100 33 7e 7b 3f a4 fc 0e 3d 58 87 46 3c 96 6c 74 3b
       0.9823944 0.034908906 0.012117229 0.0037296168
000110 8f 16 70 3c 0f d9 35 bd 3f 6e 82 bd 25 b7 fd 3d
       0.014653816 -0.044396456 -0.06368684 0.12388448
000120 f4 28 44 3b 78 e0 64 bc 69 44 80 3d a6 51 c6 bc
       0.0029931637 -0.013969533 0.06263048 -0.024208855
000130 10 1b b6 bc 95 4c 55 c0 cd 94 3c 3d 8a af 8b bf
       -0.022229701 -3.3327992 0.046040345 -1.0912945
000140 96 fc e6 bf 3f 03 5d 3d db 33 1b bd a9 47 d7 3c
       -1.8045833 0.053958174 -0.03789125 0.026279287
000150 32 ca b8 bc 57 04 93 3d 21 18 5f 3d ad d8 cf 3f
       -0.022557352 0.07178562 0.05446637 1.6237999
000160 70 f2 05 3d eb eb b4 bd 6c ad 93 3d f1 4b a4 3d
       0.03270191 -0.0883406 0.07210812 0.08022297
000170 3e 82 4c 3d ca 8c 87 bd d2 c4 a5 3d 4b fc ee ba
       0.049928896 -0.0661865 0.08094181 -0.0018233148
000180 23 69 4a bd 3f 45 0a bd 2f 32 06 3e 1c a8 a1 bc
       -0.049416672 -0.033757444 0.13105081 -0.019733481
000190 7f fb 35 3d 9f 1e a4 3d 8a c5 e1 bc 37 41 d1 3b
       0.0444293 0.08013653 -0.027560014 0.006385948
0001a0 4e 83 7b bc 33 a7 53 bd 7e 8b b1 bd 5c 50 34 bd
       -0.01535113 -0.051673125 -0.08669184 -0.04402195
0001b0 dd 90 79 3c d9 c3 ba 3d 5d b2 a5 3c 82 bf e7 3c
       0.015232292 0.09119386 0.020226652 0.02828956
0001c0 4b 11 3d 3d ff bd 0a 3d bb 80 cb 3d 92 67 76 3d
       0.04615907 0.0338726 0.09936663 0.060157366
0001d0 ba bd b5 3c b3 0c c7 bd c1 18 0d 40 71 bb 27 3d
       0.022185195 -0.09719219 2.2046359 0.040950242
0001e0 33 4e c2 bc 03 fe 8b bd ae 96 5c 3e ca c3 70 bc
       -0.023718929 -0.06835558 0.21541855 -0.014695117
0001f0 36 0a 0d bc 2e b5 2c 3c ff 90 95 3d 2a 1a 34 40
       -0.0086083915 0.0105412435 0.073030464 2.814097
